notebooks/logs/lightning_logs/version_1/checkpoints/epoch=4-step=50.ckpt (torch, 341603 bytes, 83 tensors)

transformer.sos f4 [32]
00000000: b369 d3be 08d2 c6be f520 22be 6ca2 0fc0
00000010: f926 843f 534f 14bf 9c7e c03f cc6e bb3e
00000020: 800a 7abf 7ae6 4c3f 0a6b 193e 73a9 b1bf
00000030: ecc7 9e3e 696d 993e 862f e13f c281 9abe
00000040: 661e 85be 2233 083f 9c64 b4bf 9362 d4bd
00000050: d9c3 25c0 343b 90bf 64e7 b6bf fb25 52bf
00000060: dda4 283e 0630 833e 49b3 4f3e 8727 263d
00000070: 7314 d63e 1ae4 a5be a0a4 ad3d d1d5 50bf
-0.4129158 -0.38832116 -0.15832885 -2.2442884 1.0324394 -0.5793354 1.5038638 0.3660797
-0.9767227 0.8003918 0.14982238 -1.3879837 0.31011903 0.29966286 1.7592628 -0.30177122
-0.25999755 0.5320302 -1.4093204 -0.10370364 -2.5900786 -1.1268067 -1.4289365 -0.82089204
0.1646914 0.25622576 0.20283236 0.04056504 0.41812477 -0.3240059 0.08478665 -0.8157626

transformer.transformer.layers.0.self_attn.in_proj_weight f4 [96, 32]
00000000: 1be2 5ebe d338 5e3e a8d2 d53d 58bb e7bd
00000010: 0446 c23d 5438 b4bd 1ae8 5f3e 0849 2f3d
00000020: e2f3 6e3d 059f 4b3e 69c3 1cbe 8ab5 55be
00000030: d0b7 31be d541 43bd febf e9bc ecc7 48be
00000040: a982 93bc fecf d3bd 79c8 a93c 4c33 323e
00000050: 20a7 253e 68d2 433e cb25 ebbd e994 483e
00000060: cb1f d1bd 3bd8 7b3d 23a9 5c3d eb7b 17be
00000070: 0cbc 113e 0352 353e 9978 6ebc 8caf 18be
00000080: a47b e8bc cbbe 103e 575a 183e 11a4 d5bc
00000090: b828 16bd 493a b9bd 836d f3bd 5607 cd3d
000000a0: d642 7eba 4da6 5fbe ccab aebc 8b07 493e
000000b0: a5dd 44bd 244e bebd fbe8 003d 486b f23c
000000c0: 527d 41be ea36 b3bd 1836 26be 95c5 083d
000000d0: 59a1 953c ec87 05be b5b6 04be ff4a f13d
000000e0: 0b5a 5e3d 7b37 e2bd 18db a83d 261d 033d
000000f0: eb6b 7ebd 5e33 91bd 1de5 0fbe 821f 67bd
00000100: a345 7d3d e9cc 18be bc93 963d 01b1 c0bd
00000110: fca9 0dbe f7e6 41bd 0bde a33d 9911 203e
00000120: 4da1 2f3d 09d3 5b3e 6a54 813d 30a7 283e
00000130: 8aca 083e 4543 3f3e 7795 cfbd 213a 063e
00000140: 6798 cf3d 3009 2fbc 31c6 293e 7ec8 a03d
00000150: 512b 3b3e cfaf 843d 735c 9dbd 5101 183e
00000160: 8ea1 67be 34cb b93c 51dd e53d 8cc6 4a3c
00000170: da9d 5abe 85a2 9a3d 7703 383e 03fb c03c
00000180: 1903 77bb 6f3b 1fbe 0b27 56be 9c46 2bbe
00000190: 921b fa3d 03be e8bc 877f e5bd a259 3f3d
000001a0: 8744 193e 4521 2b3e 3f25 213e f5d2 25be
000001b0: 8b6f ccbd 1e1e 173e c252 3ebe 6def cb3c
000001c0: 7800 2f3e 34b1 30be b5de 163e 8a38 96bd
000001d0: 8396 60be 2168 843d ece3 0dbe 79b5 50be
000001e0: 29a7 0a3e 2f3a 163d e8e5 bfba f7ee 893c
000001f0: 430a 413e 4e91 4ebe 9e49 3ebd 0e24 d23d
00000200: 6e12 94bd 7381 94bd 135e 013e 7ce0 5fbe
00000210: b99d 1fbc 4683 e7bd 2bb3 b23d 48db babd
00000220: 6d2e afbd 9204 ff3c 7473 cfbd 423e 08be
00000230: 954b 5a3e 576a debd 6bee 36be 4e61 843d
00000240: 72e0 18bd 12b8 0f3e 7ef6 053e 5662 ebbc
00000250: 2e6c dabd a96f b13c 3cd7 733d a77d 323e
00000260: 3746 07be 8136 d43d beef 3a3d fea3 bf3d
00000270: 5a57 1a3e d3a8 b9bd c2a4 9fbd a021 263d
00000280: f769 163e dd99 c4bd c1af 6dbd bf70 eebd
00000290: 7d3a 5f3d 138f 363c 612e bfbc 2c9c ef3d
000002a0: aa13 203e 47ed 18be f481 86bd 4f6f aebd
000002b0: b92b 333e 99ea b1bd b8ce 4a3e b973 31be
000002c0: 0356 ecbc 9ed9 373e eb0c 91bd d727 253e
000002d0: 0716 25be a176 bbbc 8f28 63be e117 0fbe
000002e0: 8c6a 2d3e 52ed 353e 33ef 523e f962 39bd
000002f0: 82d6 3d3e 670c 143e bb76 253e 92d4 20bb
00000300: 001d 20bd 6df2 343d d7a3 573e 39e4 50be
00000310: a999 e03d e3b6 11bd f382 43be 06b9 cf3d
00000320: 8640 8abd ffde 5cbe 9cfc 213e 6af0 193e
00000330: 5cd1 0e3e 148b 27bd f253 c8bd 0b82 5a3e
00000340: c3b7 94bd f5e6 a6bd c982 de3c bf04 0f3e
00000350: 64cd 053d 70c6 59bd d7b0 463e 2001 a8bd
00000360: 6f5c 0dbe ebc3 dcbd cfdf 77bd fd15 afbd
00000370: 8dde 33be e90f 03bd 65f4 183d 903a 03be
00000380: 613f 2fbe d26e 72bd c6ff 19bd 639c 453e
00000390: 4a40 31be 90e4 12bd d134 9d3d afd5 00be
000003a0: 2174 0ebe 1934 01be d53a 563c f215 bcbd
000003b0: de7e 633e a098 5ebe 10ac d23d 3a46 82bd
000003c0: 22b7 e5bd 0839 0c3c d9d2 db3d 4d34 33bd
000003d0: c495 223e a353 c1bd 0feb 3b3e 7dd7 06be
000003e0: 9619 933d 4d03 e63c 4879 30be cf95 363c
000003f0: 0b3e 2bbe dd3f 313e 418c 68be 5578 c5bd
-0.2176594 0.21701364 0.1044057 -0.1131503 0.09486011 -0.08799806 0.21865883 0.042794257
0.058338054 0.1988488 -0.15308918 -0.20870033 -0.17355275 -0.047670204 -0.028533932 -0.19607514
-0.01800664 -0.10342406 0.020725476 0.1740238 0.16177034 0.19123232 -0.11481818 0.19588055
-0.10211142 0.06148551 0.05387224 -0.14793365 0.1423189 0.17707066 -0.01455512 -0.14910716
-0.028379269 0.14135282 0.14878212 -0.02607921 -0.036659926 -0.0904432 -0.11886122 0.10011165
-0.00096992904 -0.21840782 -0.021322154 0.19631784 -0.04806294 -0.09292248 0.031472187 0.029592171
-0.18895462 -0.087507084 -0.16231573 0.033391554 0.018265413 -0.13040131 -0.12960322 0.117818825
0.05428509 -0.11045738 0.08244914 0.03201022 -0.062114637 -0.07089876 -0.14052244 -0.056426533
0.06183399 -0.14921917 0.07352397 -0.09408761 -0.13834375 -0.047339406 0.08001336 0.15631713
0.042878438 0.21467222 0.06314929 0.16470027 0.13358513 0.18678005 -0.1013593 0.13108112
0.1013649 -0.010683343 0.1657951 0.07850741 0.18278243 0.06478845 -0.07683649 0.14844252
-0.22620222 0.022679903 0.112238534 0.012376439 -0.21349278 0.075505294 0.17970072 0.023557192
-0.0037691055 -0.15550016 -0.20913331 -0.16726154 0.1221229 -0.028410917 -0.112059645 0.04671634
0.14967547 0.1671191 0.15736865 -0.16193755 -0.09982213 0.14757583 -0.18586257 0.02489444
0.17090023 -0.17255098 0.14733393 -0.07335003 -0.21932416 0.064651735 -0.13856477 -0.20381726
0.13540329 0.036676582 -0.0014640661 0.01683758 0.18851571 -0.20172617 -0.046456926 0.10260783
-0.07230078 -0.07251253 0.12633543 -0.21862978 -0.009742194 -0.11304335 0.0872558 -0.09123856
-0.08553777 0.031130109 -0.10129443 -0.13305 0.21317895 -0.108601265 -0.17864387 0.06463872
-0.037323423 0.14035061 0.1308231 -0.028733414 -0.10665165 0.021659689 0.059531435 0.17430745
-0.13210379 0.10361958 0.045638792 0.09357451 0.15072384 -0.09065404 -0.07795097 0.04055941
0.1468886 -0.095996596 -0.05802894 -0.11642598 0.05449914 0.01114251 -0.023337545 0.11699709
0.15632501 -0.14934264 -0.06567755 -0.08517324 0.17497148 -0.08687324 0.1980542 -0.17329301
-0.028849607 0.17954108 -0.07082542 0.16128479 -0.16121684 -0.022883715 -0.2218344 -0.13973953
0.16935176 0.17766312 0.2059906 -0.045260403 0.1853886 0.14457856 0.16158573 -0.0024540764
-0.039090157 0.044176508 0.21058594 -0.2039956 0.10966808 -0.035574805 -0.19092922 0.10142712
-0.06750588 -0.21569441 0.15819019 0.15033117 0.13947052 -0.04090412 -0.09781636 0.2133867
-0.07261612 -0.0814952 0.027161973 0.13966654 0.03266658 -0.05316776 0.19403397 -0.082033396
-0.13804792 -0.10779556 -0.060516175 -0.08549116 -0.17565365 -0.031997595 0.037342448 -0.12815309
-0.17114021 -0.059187718 -0.03759744 0.19297938 -0.1730968 -0.035862505 0.076760896 -0.12581514
-0.13911487 -0.1261753 0.01307555 -0.09183873 0.22216365 -0.2173791 0.102867246 -0.06361051
-0.112165704 0.008558519 0.107335754 -0.04375105 0.15877444 -0.094397806 0.18351386 -0.1316814
0.071826145 0.028077746 -0.17233765 0.011144116 -0.16722886 0.17309518 -0.22709753 -0.09642092

transformer.transformer.layers.0.self_attn.in_proj_bias f4 [96]
00000000: 424b 8bba 6d1a 593c 5e90 f43c 8afe 23ba
00000010: fa04 d2bc c758 cc3c 6399 2cbc 8ece 5abc
00000020: 0549 333c f48e 5e3c 0752 b13c a91b 42bc
00000030: 00bd 0b3d c32b a63c cf2c 053b 06ea f53c
00000040: 9f66 073c d203 7ebb 20ec 09bc 4d9b ca3c
00000050: 0635 d4ba b285 57bc c477 e4b9 de0d f6bc
00000060: dc0b 063c ec11 643c 8711 ae3b a409 84bb
00000070: c660 98bb 3dd2 ffbc f867 853c 8305 1bbd
00000080: 004b a0bb 0f21 b9bb 972a 853b a66a b0b9
00000090: 8240 17bc 8341 853c 0b34 d7bb f649 6b3b
000000a0: a0e5 6fb8 7fd0 11bb 43ea e93b 8199 c0ba
000000b0: d30e 15bc ac0b 683b 406d 19bc f647 20bc
000000c0: da5e 56bb 1ea7 793a b0a1 e33b dd26 62ba
000000d0: 2db6 3a3c 9873 ba3a 4ff8 37bc c59c 4fbb
000000e0: 6cc2 d4bb 624c a0ba 9a18 623b 4af2 d43a
000000f0: fda1 9a3b 1bbf 1f3c 40e5 42bc 2695 1e3b
00000100: aa2a e03c b471 7e3c c91f c83b 4ea8 bb3c
00000110: 18ef 95bb ae49 01bb 06ef 153c 055f fdbc
00000120: 95df 933c 088e a9bc b24d a0ba 1435 8cbc
00000130: 5287 303c 7599 493c 4a10 2bbb d253 7dbb
00000140: b89c 99bc a3d2 0b3c ce8a 53bc e274 033c
00000150: 0ea1 443c 7ce7 0e3d 2a7f a93c ad67 9e3a
00000160: cd8a 133c 207f 8cbc ce41 1e3c a9f4 d83b
00000170: 8435 c33c 1fab 11bc 3d24 4d3c a8c1 6bbb
-0.0010627287 0.013250929 0.029853996 -0.0006255886 -0.025637139 0.024944676 -0.010534617 -0.013354911
0.010942702 0.013583887 0.021645559 -0.011847415 0.03411579 0.02028454 0.0020320897 0.030018818
0.008264213 -0.0038759601 -0.008418113 0.024732256 -0.0016190119 -0.013154434 -0.0004357678 -0.03003591
0.008181538 0.0139202885 0.005312148 -0.0040294696 -0.004650208 -0.03122818 0.016284928 -0.037847053
-0.004891753 -0.005649693 0.004063915 -0.00033648795 -0.009231688 0.01626659 -0.0065674833 0.0035902238
-5.7195895e-05 -0.0022249517 0.007138522 -0.0014694185 -0.009097773 0.0035407348 -0.009364426 -0.009782782
-0.0032710345 0.00095234986 0.006946765 -0.0008627007 0.011395973 0.0014225123 -0.011228635 -0.0031679135
-0.0064929035 -0.0012229795 0.0034499527 0.0016246524 0.0047190175 0.009750153 -0.011895478 0.0024197786
0.027364094 0.015530039 0.0061073047 0.022907402 -0.0045756213 -0.0019727754 0.009151226 -0.030929098
0.018050948 -0.020697609 -0.0012230186 -0.017115153 0.01077445 0.012304653 -0.0026102238 -0.0038654697
-0.018751487 0.008534106 -0.012911512 0.0080234725 0.012001289 0.03488873 0.02069052 0.0012085341
0.009005261 -0.017150462 0.009659244 0.0066209626 0.02382923 -0.008890896 0.012520847 -0.0035973582

transformer.transformer.layers.0.self_attn.out_proj.weight f4 [32, 32]
00000000: 5772 adbd 8879 8f3b 8bcd 85bd 1594 28be
00000010: d047 1abe d321 db3d 0d63 72bd e3ff 843c
00000020: 35cd 0e3e db66 823d cbb2 46bd 7cda aa3d
00000030: 436c 10be ff40 59bc a464 88bc d8b2 ac3c
00000040: 9266 41bd c734 86bd df0c 633d 96de 5bb9
00000050: 80a3 bdbd bb1d 8b3c 2f8c f0bd 9b5d d33d
00000060: b5e9 03be 5999 17be 2bdb 05bc 3a37 06be
00000070: 7eb4 f0bd 0030 d93d 3a68 09be dd41 a23d
00000080: 0073 063d 1c51 363c 48ed 19be 414c 3ebe
00000090: a36f 52bd cf01 21be 823a 0cbe 8351 75bd
000000a0: 4ebc f73d a1e4 633c cbc6 21be 842e 15be
000000b0: fa25 dfbd 098a 593d ed6a 873d f00f 63bd
000000c0: 90c5 97bd 47ca 04be 1b34 88bd 86e5 c03d
000000d0: a878 3dbd a158 dcbd 8432 15bd 15bb b8bd
000000e0: d7d9 b93d 145b 19be 184d 343d 0132 213e
000000f0: f1af 44bc 6afd 21bd 4ed5 ee3d 675e 2dbc
00000100: d970 1a3e 64fb 0fbd 160f 743d 979f c3bd
00000110: a2be c3bd fe5c 673d 889e f43d a68d d6bd
00000120: a1e5 f33d 71fe 93bd 1a37 efbb a9fb 2a3e
00000130: 961a 923d 6c3a c83b ecf6 cd3d 44b8 9a3c
00000140: 60c8 0bbe 67a1 0d3e 2e7e b7bb 4fa3 f9bd
00000150: 4221 b13d 46a4 203e 69e3 8d3d 6548 14be
00000160: 5739 c63d 82da 8a3d 75aa 283c a179 1bbe
00000170: 24c7 9a3d 77ef 843d f3fe 07be 05da 023d
00000180: 8473 543e 658b c93d 9f5c b83d f76a 233b
00000190: 585b 19bd 6be1 373e 8e69 2ebe 3867 d1bc
000001a0: ac5a 323d c963 8e3c 3b2f 1cbe 51b0 cdbd
000001b0: 06da 863d 57de 8bbd a36a 2b3e 0dbc b23d
000001c0: 8327 7abd fe9e dabd 916a c7bd b6f1 433e
000001d0: 0234 eb3d 94ac 293e a220 7abd 4e18 14bc
000001e0: 276b 103e dc4e 69bd 4fb5 13be 7dce 03be
000001f0: 9079 d13d 1a55 d83c 7298 ed3d 21c9 fa3d
00000200: 3909 aebc 9d6e 75bc 6397 153e 1e64 273e
00000210: 1d78 23be 2a84 4fbd f21e 06be 45bb f33d
00000220: 03df 14be 25fe 35bc 9127 0dbe 4447 283d
00000230: 5446 8ebd 53f0 5e3d c850 9ebb 8031 283d
00000240: 9da6 6b3d 85c9 d23c 0e23 01bd 62cb dfbd
00000250: e8bd 98bd 53b7 0abe 2a92 ec3d d6e2 d33d
00000260: 02ee 293d 4e19 dcbc d455 8a3d 42db 0dbe
00000270: 6661 e3bd 8795 febb d574 9b3b 52a5 153e
00000280: f9ee 14bd 5317 f4bd d3b7 00be 450d 0d3e
00000290: 4eb5 9b3d 6441 cd3d d857 243d b27f 08be
000002a0: 98a9 cb3d a0c7 60bc 5d91 f9bd b094 90bd
000002b0: dc91 09be 0252 ea3d 482f c73d 4715 c7bd
000002c0: e83e 2dbe 9625 c5bd 0b27 05be 7ef5 2a3d
000002d0: e6c0 833d b2f9 a83d a458 743d 5307 92bd
000002e0: f9a9 0ebe ee06 623c a5c0 13be 106c 1cbe
000002f0: 3bb5 043e 2461 a5bd 945e ff3d 1622 7d3d
00000300: 9407 e4bb 5e16 48bd 1669 25be 521a d23c
00000310: ab41 d03d 5ad4 003e a9f5 1b3d 64e6 d03d
00000320: 90f5 fd3d d180 2f3e a8a2 a23d 808a 4abd
00000330: d687 0c3e 06cd 193e 6467 a2bd 0c7e 973d
00000340: 8ab8 063d 2221 063e a392 183d 6033 b53b
00000350: c51d 14bd 3ea0 113e 865f c13d 53a2 1b3d
00000360: e860 fdbb cc15 8dbd 7249 16be cfd3 08be
00000370: dd30 92bd d1dd babd 9454 1abd 879a 39be
00000380: 1c14 7dbd 4dd2 a43d 6632 1cbe acdd 0b3e
00000390: 01aa d1bd 8a95 ebbd 0fbc 88bd ada7 23be
000003a0: eacc a33d 99b6 8abd 395e aa3d 78da 2abe
000003b0: 4e74 21be d65c 353e 2c8d 1a3d 4d72 643d
000003c0: 6aa9 0abe 83d3 303d 5fe3 9a3c 0f81 ecbd
000003d0: 0cfc 39bd 3029 6abd 457c 18bd 769c df3d
000003e0: db4e 943d 1cc8 073e a5fe ba3d 7242 f3bd
000003f0: 79d6 7b3d 2bd3 2d3e b163 053e b15f 163e
-0.08469074 0.0043785013 -0.06533345 -0.16462739 -0.15066457 0.10699811 -0.059176493 0.016235298
0.13945468 0.063672744 -0.048510354 0.08342454 -0.14103799 -0.013260125 -0.016649552 0.021081373
-0.04721696 -0.06553035 0.055432197 -0.00020968387 -0.09259701 0.01698195 -0.11745488 0.10320588
-0.12882121 -0.14804591 -0.0081699295 -0.13107005 -0.11753176 0.106048584 -0.13418666 0.07922719
0.032824516 0.011127736 -0.15031922 -0.18583776 -0.051375996 -0.15723346 -0.13694194 -0.05989219
0.12096463 0.01390949 -0.1579849 -0.14568526 -0.10895915 0.053110156 0.06612191 -0.05543512
-0.07410729 -0.12967788 -0.06650563 0.09418778 -0.046257645 -0.10759092 -0.03642513 -0.09020058
0.09074753 -0.1497615 0.044018835 0.15741731 -0.012004838 -0.039548315 0.116617784 -0.010581589
0.1508211 -0.035151854 0.0595847 -0.09551924 -0.09557845 0.05648517 0.119443 -0.10476236
0.119090326 -0.07226265 -0.00730027 0.16697563 0.07133977 0.00611048 0.10056862 0.018886693
-0.13650656 0.13831101 -0.0055997586 -0.12189352 0.086489215 0.15687665 0.06928141 -0.14480741
0.096789055 0.06779958 0.010294546 -0.15183116 0.07557514 0.06490987 -0.13280849 0.0319462
0.2074719 0.098410405 0.09002041 0.0024935582 -0.037440628 0.17957084 -0.17032453 -0.025561914
0.043543503 0.017381566 -0.15252392 -0.10043395 0.065845534 -0.06829517 0.16739897 0.08727274
-0.061072838 -0.106748566 -0.09737123 0.19135174 0.11484529 0.1656974 -0.061066277 -0.009038998
0.14103375 -0.05695997 -0.14424632 -0.12871738 0.10228264 0.026407767 0.11601342 0.122453935
-0.021244632 -0.014979986 0.1460853 0.16346785 -0.15963788 -0.05066315 -0.13097742 0.11900953
-0.14538197 -0.011107956 -0.13784625 0.04108359 -0.06947008 0.05442841 -0.004831407 0.041062832
0.05753194 0.025730858 -0.03152757 -0.10927464 -0.07458097 -0.13546495 0.11551316 0.10346
0.041486748 -0.026867535 0.06754652 -0.13853171 -0.11102562 -0.00776929 0.004744152 0.14613846
-0.036360715 -0.11918511 -0.12570123 0.13774593 0.076029405 0.10022238 0.040122837 -0.13329962
0.09944457 -0.013719469 -0.12185929 -0.0705961 -0.13434547 0.11441423 0.09725815 -0.09720855
-0.16918528 -0.096263096 -0.13003175 0.041738026 0.06433277 0.082507506 0.059654847 -0.07130303
-0.13932027 0.0137955975 -0.14428957 -0.15275598 0.12959759 -0.08075169 0.12469211 0.061800085
-0.006958911 -0.048849456 -0.16153368 0.025647316 0.10168775 0.12581006 0.038076077 0.102001935
0.12400353 0.17138983 0.079411805 -0.04944849 0.13723692 0.15019616 -0.079298764 0.073970884
0.032890834 0.13098577 0.03724922 0.005529806 -0.036161203 0.14221284 0.09442048 0.0379966
-0.0077324994 -0.06888923 -0.14676455 -0.13362049 -0.07138226 -0.09124339 -0.037678316 -0.18125354
-0.061786756 0.08047924 -0.152536 0.1365878 -0.10237504 -0.11503132 -0.06676494 -0.15981932
0.07998069 -0.06773109 0.08318753 -0.16684902 -0.15767023 0.17711195 0.03773229 0.05577307
-0.13541189 0.043170463 0.018907247 -0.115480535 -0.045406386 -0.057168186 -0.037227888 0.109185144
0.07241603 0.1325993 0.09130601 -0.11877908 0.061483834 0.16975085 0.1302631 0.14684941

transformer.transformer.layers.0.self_attn.out_proj.bias f4 [32]
00000000: 81c9 25bc dc72 683c b22c fb3b 9f36 ef3c
00000010: ec2c 723c c100 08bc 2ae8 663b 8a99 953c
00000020: 1984 643b 450a 863c cd66 afbc 2475 07bd
00000030: 3605 8f3c 5e82 003c 9d28 fdbb c59f d8bc
00000040: 1a0c de3a 948f a03c 1647 c3bc ce67 243c
00000050: 6185 583b 1186 b23c c3d8 303c b9b6 073d
00000060: 8e99 8c3c a70c a43c efbd 603c 82a4 b3ba
00000070: 8f2d ac3c 15fe 813c 6195 673c d1e1 04bd
-0.010118843 0.014187541 0.00766524 0.02920085 0.014781218 -0.008300961 0.0035233595 0.01826169
0.0034868775 0.016362319 -0.021411324 -0.0330707 0.01745854 0.007843582 -0.0077257887 -0.026443372
0.0016940862 0.019599713 -0.023837607 0.010034515 0.0033038484 0.021792443 0.0107938675 0.033133242
0.017163064 0.020025564 0.013717159 -0.0013705643 0.021017818 0.015868226 0.014134736 -0.032441918

transformer.transformer.layers.0.linear1.weight f4 [128, 32]
00000000: 9f08 31bd 8616 a73d 59fe 533c e634 32be
00000010: a493 3d3d 50c7 dd3c c600 e9ba 23f4 f63d
00000020: 6f0f 40be 0091 163e 10d7 03bd 186c 9cbd
00000030: 2f49 303e 5813 1b3e 63d6 103e d374 debd
00000040: a651 203e 06c7 b23d 1e52 4b3d 42c3 00be
00000050: d1cc cbbd 7cd4 ab3c 25b5 1abe 430d f83d
00000060: da65 14be c7c1 a3bd 98d2 c73c 44c3 833d
00000070: 4e7a 9f3d bbdd 1e3e c999 163d 69ae 133e
00000080: 1d5b f3bd 5055 833d 26a7 0dbe b79f 1e3e
00000090: 4041 ff3d 39ed e83d 3487 88bd 745c d23d
000000a0: 97e2 ef3d 4be8 cf3d 0590 103e 80ea eabd
000000b0: f37e 17be d27e 2c3e ae55 123c 57fa 70bd
000000c0: 4904 203e 443a 2ebd cafc 9b3d f404 54bd
000000d0: 2323 1e3c 00d3 c2bd a893 85bd 9af4 70bd
000000e0: b349 f33d dc00 863d a3f3 fa3d 9339 11be
000000f0: 4d5c 0e3d 4b59 4abc 5d66 1e3e f33f 493e
00000100: 2806 f03d 8a4b 48be 523a 40bd dadb 1bbe
00000110: e7f2 173d 0898 d83b da2b 95bc 6097 c6bd
00000120: cbef 2a3d 12c8 5b3d d142 043e 0ac3 58bd
00000130: a1bd 0bbc 08fd 0a3e 0f93 11be 4f7e 6b3d
00000140: 1c80 34bd 1170 423e 9544 06be cb13 10be
00000150: c8d7 a5bd f902 993d 8e2b 06be c695 1fbd
00000160: 23e0 78bd e956 dbbd 1d56 27bd 78c0 c4bd
00000170: bcad 03be 2c1e 233e e1c1 0b3e 2fac 84bd
00000180: d43d 91bd f502 e23d 367b 14be 53e7 34be
00000190: bfda 463d 4552 04be 1116 043e 9843 3c3e
000001a0: c63d 663d f7d2 15be 1992 43be 23b7 ac3c
000001b0: 60c7 2f3e 3bbc 323e 5692 a53d 7f13 1bbe
000001c0: 2be2 b73d 3490 cfbd 16bd 323e fc40 6b3d
000001d0: b611 1e3e a776 083e c448 c1bd 291d 293c
000001e0: cccc 2abe 41c8 22be 71c3 3ebd affa 193e
000001f0: c234 af3d 0c0e 963c c6f8 2abe b1fb 48be
00000200: 4b2a 263e 236b 863c 6f57 08be 7b66 f0bd
00000210: 6774 1e3c b0bd 833d f174 07be a8d6 303e
00000220: a50d 2a3e 7e88 3b3d be64 b9bb 9122 313d
00000230: bd6d 77bd 6e24 ee3d 21df ef3c 1f1a 2abe
00000240: 9cab 3b3d 24c2 1c3e bf4b 0a3e 3382 233d
00000250: 7cc8 1dbd 1ffa fc3d 1660 c33d 0e01 29be
00000260: 060b 453d 4fb6 edbd ff6f eebd 4ca1 21be
00000270: 92bb 05be 6aca fdbd f0c7 5dbd 7153 a33c
00000280: 9b1f 19be 178a d6bd 352e e93d 8e8e 493d
00000290: 207b 18be 1ff8 223d 9d8a 85bd 183c 953d
000002a0: 7afc ecbd e070 40be d933 d93d ffeb b53d
000002b0: 0031 9a3d 91a1 0d3d 8a66 273e c715 3fbd
000002c0: b6ac 85bc 4a3f 76bd 79b0 0fbe 798c 0dbe
000002d0: d5c9 bd3d 3d35 c0bd 454b e2bd 4c3b e53d
000002e0: 4b10 a53d ba34 d83d ffff 77bd ed22 4e3d
000002f0: 1d2d 2cbe efec bd3c a2b8 c83d 7f7e 613d
00000300: 78f3 d1bd f166 033c 61dd 8ebd 536c f8bd
00000310: a07a 95bd f94d 413d 6b54 25be 2817 2abe
00000320: 2c03 18be 07c2 1bbe 0ef2 a1bd d994 513d
00000330: 1649 abbd fda4 583d ce1f 2c3d 0a0e aabd
00000340: 8456 1b3e 407c b8bc a91f 1e3e c4b8 133d
00000350: 0969 3b3d b21a ad3d 71ff 23be b37c bbbd
00000360: 8753 d13d 9259 1b3e ca47 2f3c 4554 cf3d
00000370: 75dd bebc 5de1 1cbe a605 c93d 5d2a 3abd
00000380: dd89 dbbd 2b0f cdbd ee17 38bd d840 b63c
00000390: e77f b13c 7226 a43d be8a 123e 4252 523d
000003a0: 93a9 6c3d 5b38 aa3d 7dcf db3c 6ad6 043c
000003b0: d2d6 0fbe 0203 a93d e8ae 01be aedb c3bd
000003c0: 5aa9 0a3d fdd7 de3d f813 63bd 9ce1 06be
000003d0: fd79 033e cd25 9f3c 9576 103c bd3c fb3b
000003e0: f75d 95bc be3c 27be 4d34 583c 2cfa e73d
000003f0: 36c4 11be 6c8a 253e 60fe 253e 3433 c23d
-0.043221112 0.08158593 0.012939059 -0.17402992 0.04628338 0.027072579 -0.001777672 0.12058284
-0.18755887 0.1470375 -0.03218752 -0.07637805 0.17215417 0.15144098 0.14144282 -0.10862126
0.15656146 0.08729367 0.04963886 -0.12574485 -0.09951175 0.020975344 -0.15108164 0.121119045
-0.14491978 -0.079959445 0.024392411 0.06433728 0.07787 0.15514271 0.036767755 0.14422001
-0.11882613 0.064127564 -0.13833293 0.15490614 0.12463617 0.11373372 -0.06666413 0.1027154
0.117131405 0.10151728 0.14117439 -0.114705086 -0.14794521 0.16845253 0.00893156 -0.058832493
0.15626635 -0.042536035 0.07616575 -0.051762536 0.009651932 -0.09512901 -0.06522304 -0.05882702
0.118792914 0.06543133 0.12253501 -0.14182119 0.034755994 -0.012350391 0.15468736 0.19653301
0.11719924 -0.19560066 -0.04693062 -0.15220585 0.037096884 0.0066099204 -0.018209387 -0.09696841
0.04173259 0.0536576 0.12916113 -0.05292038 -0.008529098 0.13573086 -0.14216255 0.057493504
-0.044067487 0.18988062 -0.131121 -0.1407005 -0.08097798 0.0747127 -0.13102552 -0.038961194
-0.06076063 -0.10709936 -0.04085361 -0.09607023 -0.12859243 0.15929478 0.13648178 -0.06478154
-0.07091871 0.1103572 -0.14500126 -0.17666368 0.048548456 -0.12922008 0.12899043 0.1838516
0.056211255 -0.14631258 -0.190987 0.02108342 0.171659 0.17454617 0.08084552 -0.15144156
0.08978685 -0.101349264 0.17454943 0.05743502 0.15436444 0.13326512 -0.09437707 0.010321894
-0.16679686 -0.15896703 -0.046573106 0.15037034 0.08554985 0.018317245 -0.16696462 -0.19627263
0.16227071 0.016408509 -0.13314603 -0.117382966 0.009671307 0.064326644 -0.13228203 0.17269385
0.16606767 0.045784466 -0.0056577614 0.043245856 -0.06040739 0.11628042 0.0292812 -0.16611527
0.045817956 0.15308434 0.13505457 0.03991909 -0.038521275 0.12352394 0.09539811 -0.16504309
0.048106216 -0.11607038 -0.11642455 -0.15784186 -0.13059834 -0.12392123 -0.054145753 0.019937249
-0.14953463 -0.10475557 0.113857664 0.049208216 -0.14890718 0.039787408 -0.06520579 0.072868526
-0.115715936 -0.18793058 0.10605592 0.08882903 0.07528877 0.03457791 0.1634771 -0.046651628
-0.016317707 -0.06011895 -0.14032163 -0.13823117 0.09267012 -0.093851544 -0.11049513 0.111929506
0.08059748 0.10556932 -0.06054687 0.050326277 -0.16814084 0.023184268 0.09800841 0.055052277
-0.10251516 0.008020149 -0.069758184 -0.12130036 -0.072987795 0.0471935 -0.16145484 -0.16610396
-0.1484496 -0.15210734 -0.079074964 0.051167343 -0.083635494 0.05289172 0.04202252 -0.08303459
0.15169722 -0.022520185 0.15441765 0.036064878 0.045754466 0.08452357 -0.16015412 -0.09154644
0.1022101 0.15170887 0.010698268 0.10123495 -0.023298958 -0.15320344 0.098155305 -0.045450557
-0.10719655 -0.10012659 -0.044944696 0.022247717 0.021667434 0.08015145 0.14310738 0.05134798
0.057778906 0.0831153 0.026832337 0.008107761 -0.14046791 0.08252527 -0.12664378 -0.09563385
0.033852912 0.1088104 -0.055438966 -0.13172 0.12839504 0.019427205 0.008817335 0.0076671527
-0.018233282 -0.16331765 0.013196063 0.113270134 -0.14235005 0.16166085 0.16210318 0.094824225

transformer.transformer.layers.0.linear1.bias f4 [128]
00000000: 7f05 c8bd eaed 25bd ad86 d0bc a386 133e
00000010: 1ebb 0ebe aea0 23bd 746c 203e cdfa 1dbe
00000020: e43c 2abb 1a88 2a3e b191 f33d 5a6e 13be
00000030: 480d 413e 8720 aa3d 5b75 4abd 86c0 0f3e
00000040: 1757 b23c 513a a63d 7be2 f63d 063a 1d3e
00000050: f8d4 db3d 5f89 263e d108 043e 3fd8 fd3d
00000060: c700 45bc 028a 2e3e 15ba 8abc 9f15 123e
00000070: e9df ccbc 2af4 473a 4827 92bd f81e 393e
00000080: 76ff 37bc 2817 8a3d 44c3 0b3e 75ff dd3d
00000090: fa3b 37be 9cbc 4dbc 2cb2 9c3c 08fa 6abd
000000a0: cc22 fd3d abf9 4d3d c77e 68bd 7905 13bc
000000b0: 12e6 3f3d ab05 ff3d 6554 42bd 0c34 fcbd
000000c0: e0f2 f03d 97e2 f63d ea3b b3bb 0c54 913d
000000d0: 7aca 373e 1659 063d 559a c73d 644b 9bbb
000000e0: 73e5 8bbd 89ac 23be 4a3f 52bd 31bb 0ebe
000000f0: 9e40 8f3d 8708 9e3c e171 543d 4d79 99bc
00000100: 42b0 263e 4f53 e6bc c1be 0fbe 6983 f03d
00000110: ad5a 113e 0427 133e 4cc7 333e 8e71 12bd
00000120: a341 6d3d 6497 9fbd 9d85 1abd 8e12 0b3e
00000130: e0db eb3d e762 2dbe 7d73 dc3d 8918 983d
00000140: f888 1bbd 6476 323e 058d ea3b 91b2 9c3b
00000150: d62f 2c3e 7ed0 4c3d d021 49bc 4236 07be
00000160: dc63 a5bd 345f 1b3e b9d2 30be 8be4 9ebd
00000170: e44b 65bd 5a83 ae3c ec01 ddbd 559f 16bc
00000180: 1b24 893d 6f7b fbbd 41c0 01be a8f8 a0bc
00000190: d021 ec3d 602d 9ebd 25d5 353e a73c 38be
000001a0: db6e dc3c c5dd f7bc 3301 f33d 95a5 bcbd
000001b0: 6295 e0bd fe7b 9fbd 1adc 5e3d 2212 b5bd
000001c0: 97f3 4abd 0742 7f3d 2d58 c2bd 40a6 31bc
000001d0: 9d48 b6bd 3d73 173e fc16 34bd a78a 8c3d
000001e0: b5f6 99bd 987e 963d e752 ebbd bcfa ba3d
000001f0: bba9 dcbc c8ca f5bd 2dc2 b13d 7481 bcbd
-0.09766673 -0.040510096 -0.025454843 0.14406829 -0.13938567 -0.039948158 0.15666372 -0.15427704
-0.0025976235 0.16653481 0.11893023 -0.14397565 0.18852723 0.08306985 -0.049428325 0.14038286
0.021770043 0.08116592 0.120549165 0.15354165 0.1073398 0.1626334 0.12893988 0.12394761
-0.012024111 0.17044833 -0.016934434 0.1426606 -0.025009112 0.0007627631 -0.071363986 0.1807822
-0.01123034 0.06742698 0.13648707 0.1083974 -0.17893973 -0.012557175 0.019127928 -0.057367355
0.123601526 0.05028693 -0.05676153 -0.008973473 0.04685027 0.12452253 -0.047443766 -0.12314615
0.11765075 0.12054937 -0.005469789 0.07096109 0.17948332 0.032799803 0.097462334 -0.004739212
-0.06830873 -0.15983786 -0.05132989 -0.13938595 0.069947466 0.019291176 0.051866416 -0.018734599
0.16278175 -0.028115897 -0.1403761 0.117438145 0.14194746 0.14370352 0.17556494 -0.035752825
0.057923924 -0.07792547 -0.03772508 0.13581297 0.11516547 -0.1693226 0.10764215 0.07426555
-0.03797242 0.17427975 0.007157924 0.004782029 0.16815123 0.05000352 -0.012276128 -0.13204291
-0.08075687 0.15173036 -0.17267884 -0.07758435 -0.055980578 0.021302868 -0.10791382 -0.009193261
0.0669634 -0.122794025 -0.12670995 -0.019649819 0.11529887 -0.07723498 0.1775709 -0.17991887
0.026908329 -0.030257115 0.11865463 -0.0921127 -0.109659925 -0.077873215 0.054409124 -0.08841349
-0.04954871 0.062318828 -0.094894744 -0.01084286 -0.08900569 0.14790054 -0.043967232 0.06862383
-0.07517759 0.073483646 -0.11490422 0.09129855 -0.026936403 -0.12001568 0.08679614 -0.09204379

transformer.transformer.layers.0.linear2.weight f4 [32, 128]
00000000: 77c4 87bd 40f2 2f3d 7dbf 253d 89f3 ebbd
00000010: 70e7 98bd 857d cb3c c7dd c6bd bbe3 5b3d
00000020: 9816 15bc 31e6 a63d 7210 dbbc c8ea ad3d
00000030: 23ee 28bb dcdf 85bb a9a1 7cbd c28b 953d
00000040: fab6 77bd 3e88 223d 0ae9 c5ba 078c a03b
00000050: a8ed b3bd 10b4 46bc b2aa 083d 9457 883d
00000060: defe 12bd c6d2 87bd c59d 8f3d 1fd4 c5bd
00000070: d066 23bc 8aa7 59bd ef48 963d 1496 ec3c
00000080: f421 493d 59a3 043d 22db 90bd 86bd 773d
00000090: 07e5 a73d ba0e 92bc 9f26 bcbd 17c3 80bd
000000a0: 26c5 a4bc 99df afbd e38d 9dbd 5042 603c
000000b0: 2628 72bd 1fd4 e9bc 9078 2bbd ff70 fbbc
000000c0: d163 b53c 351b a0bd 8726 603c 4269 9e3c
000000d0: c007 483c 77f4 7a3d fb65 b8bd 4997 9fbb
000000e0: 187b d7bc 19ec 6ebd 801a 943d e31b 183c
000000f0: b65a e13c d4fc 1fbc f209 343c bd04 5bbd
00000100: c6e8 73bd 99ba 983d 41d4 353d 122c b13d
00000110: d03d 84bd e496 7ebd 3a3a 763d 42e7 68bd
00000120: ed28 853d 5fc0 b83c 70a5 bb3d a6c2 0a3d
00000130: 3a3a a13d 5d18 c0bb 4f9c ab3d e3ea 813d
00000140: 8d70 0abd fdf4 013d b5ce 1d3c a26c b4bd
00000150: a9c4 4e3d aaa0 373d 5d9e 4a3c e887 953d
00000160: f113 22bb 32cf 00bd 3f48 c13c 3f26 703d
00000170: 6391 7c3d 0fe2 be3d 2fc3 69bd b212 883d
00000180: 3a61 8ebc e206 5a3d 451d 99bd 2683 32bd
00000190: 9e03 8ebd 8142 b7bc 410d c2bd 0262 973d
000001a0: 83a6 90bd 01e6 873d 1a4c 2d3d f93a 85bd
000001b0: e641 953d f1ad ef3c fdf1 e2bc 0acb 23bd
000001c0: abb8 f33c 6c64 21bd c17c 81bd 0d8a 7abc
000001d0: ae44 8b3d 55cd b1bd de37 483c 8614 b4bd
000001e0: acde aebd 40aa 7cbd c26a e53c c96f 513d
000001f0: 52f0 833d 5a6b 763d d761 efbc 8f0b cdbc
00000200: 9dbf dbbb 0780 bfbc 6b0f c23d 1249 723d
00000210: c3b6 673d 284d d33c fff1 cd3d 69bd 363c
00000220: 779e 393c 4164 3c3d 44c4 b43c cde9 b9bc
00000230: be1d 283b a8e2 c93c 321b a2bc ae09 3b3d
00000240: 05e1 cfbd 932a 8e3d 77b7 df3d b240 143d
00000250: 348e aabc 3c4e 1e3c 43f6 14bd b3bf 9abd
00000260: bf49 fcbc 3d17 79bd 7981 aa3d 2f8f 4abd
00000270: ca15 29bd d2b2 923b 3a36 bc3c 2ac7 f93c
00000280: 5b4a 84bd 5030 4b3b 597f 45bd 7115 f2bc
00000290: aa89 7a3d 0ab7 d4bc 2042 0ebd c455 e6bc
000002a0: 24ad cdbc 8f9b 353d d82d 803d f4d5 cd39
000002b0: 06be c43d a26d 22bd c895 7c3d bbc2 c63d
000002c0: b3b2 803d 6791 cabc ccb0 0f3d a448 16bc
000002d0: dd92 d73c 8d01 4f3d 3948 aa3d f46d 0e3d
000002e0: ca32 8a3d fb43 74bc 31bd 03bc 484d 75bd
000002f0: 0a7d 683d e4b8 cd3b bcce 943c 0448 dabc
00000300: 0bd4 1bbd 0cfe 1dbd 874a 2fbc 0c30 da3c
00000310: 13e6 7ebc 6c7d 59bd fe41 ad3d 4198 adbd
00000320: b2b3 fd3c 6e7a 213d 1c25 4cbd 9be1 213d
00000330: 13d7 923d 3b0c 49bd 698f 2bbd 595e 973d
00000340: 8a20 a33a 1783 853d 3cbd c13d 5293 97bb
00000350: f504 33bd d71a f5bc 80df 30bd 152b 153d
00000360: 5f10 8d3d 0a4e 72bd 5c8f 6fbd a766 253d
00000370: 0d3c a43c 4d64 cebd f82a 8a3d 0316 d33d
00000380: a788 e8bc a0c4 8d3b e477 7fbc 89e8 ecbc
00000390: 3ab2 773b 7bfa 7dbd 065d 03bb 22e2 123c
000003a0: 9445 bb3b 90cb 48bd 0e8b 1a3d f734 81bd
000003b0: 0aa8 983d 3fdd 12bd 601d cf3d d917 293d
000003c0: 9629 23bd d7c7 5b3c 0c78 c63c 8842 e4bc
000003d0: 40e2 8b3c 5f5a c2bc c4b8 e2bc b14f f5bc
000003e0: c07d 303d a7e1 67bb 168f c53d 3401 d13d
000003f0: 852e 6bbc fbc4 5b3d 4ac4 873d b627 46bd
-0.066292696 0.042955637 0.04046582 -0.1152106 -0.07466018 0.024840126 -0.097102694 0.053683978
-0.009099625 0.08149374 -0.02674124 0.084920466 -0.0025776706 -0.004085524 -0.06167761 0.07302047
-0.060477234 0.039680712 -0.0015099358 0.004899505 -0.08785564 -0.012127891 0.033365913 0.06657329
-0.03588759 -0.06631999 0.07012514 -0.096595995 -0.009973243 -0.053138293 0.0733813 0.028880157
0.049104646 0.032382343 -0.07073046 0.060483478 0.081979804 -0.017829288 -0.09187054 -0.062872104
-0.020113539 -0.0858757 -0.07693078 0.013687685 -0.05912032 -0.02854353 -0.041863024 -0.03069353
0.022142323 -0.07817689 0.013681061 0.0193373 0.012208879 0.061268296 -0.09003826 -0.0048703295
-0.026303813 -0.05833063 0.07231617 0.009283992 0.027509075 -0.009764869 0.010988699 -0.053471316
-0.059548162 0.07457466 0.044391874 0.08650984 -0.06457102 -0.06215562 0.060114123 -0.05686117
0.065019466 0.022552667 0.09162414 0.033877037 0.07872434 -0.0058622793 0.08379423 0.06343629
-0.033798743 0.03172778 0.009631802 -0.088097826 0.05048052 0.044830956 0.012366858 0.07301313
-0.0024731124 -0.031447597 0.02359402 0.058630224 0.06166209 0.09320461 -0.057070907 0.06644191
-0.017380346 0.05322922 -0.07476286 -0.043582104 -0.06934284 -0.022370579 -0.09475184 0.073917404
-0.070630096 0.06635667 0.042308904 -0.06505389 0.0728796 0.029257746 -0.02770328 -0.039988555
0.029751142 -0.03940241 -0.06322623 -0.015291703 0.06800209 -0.08681742 0.012220351 -0.08792977
-0.08538565 -0.0616858 0.028005008 0.051131997 0.06442322 0.060160972 -0.029221458 -0.025029926
-0.0067061917 -0.023376478 0.09475597 0.059151717 0.05657078 0.025793627 0.10055923 0.011153557
0.011329285 0.045994047 0.022066243 -0.022694493 0.0025652493 0.024644211 -0.019788358 0.04566353
-0.10150341 0.06941714 0.10923665 0.03619451 -0.02081976 0.009662207 -0.036367666 -0.07556095
-0.030796884 -0.060813177 0.08325476 -0.049452957 -0.041280545 0.0044768834 0.022975076 0.030490477
-0.06459495 0.0031004138 -0.04821715 -0.02955124 0.061166443 -0.025966186 -0.03473103 -0.028117068
-0.025106974 0.044337805 0.06258744 0.00039260054 0.096065566 -0.039655335 0.06166628 0.09705111
0.06284084 -0.024727536 0.035080716 -0.009172592 0.026315147 0.05053859 0.08314557 0.03477283
0.067479685 -0.014908786 -0.008040712 -0.059888154 0.05675987 0.006278144 0.018164985 -0.026645668
-0.038044017 -0.038572356 -0.010698921 0.026634239 -0.015557784 -0.053098127 0.08459853 -0.08476306
0.030969474 0.0394234 -0.049840078 0.039521795 0.071699284 -0.04908393 -0.041884813 0.07391042
0.001244561 0.06519144 0.09459922 -0.0046257162 -0.0437059 -0.029920025 -0.043181896 0.03641804
0.06887888 -0.059156455 -0.058486328 0.0403811 0.020048166 -0.100777246 0.06746477 0.10306933
-0.028385473 0.004326418 -0.015592549 -0.028919475 0.003779544 -0.062006455 -0.002004446 0.008965047
0.0057150815 -0.049022257 0.03773027 -0.0630893 0.07453926 -0.035855528 0.10113025 0.04128251
-0.03983458 0.013414345 0.024227165 -0.027863756 0.017075658 -0.023724733 -0.027675994 -0.029945226
0.043088675 -0.0035382302 0.09646432 0.102053076 -0.014354353 0.053654652 0.06629236 -0.048377715

transformer.transformer.layers.0.linear2.bias f4 [32]
00000000: 7c20 86bd e19b 3a3d 01f6 83bd 41e1 193c
00000010: 62ab 0ebc dcf8 c0bd 508b 81bc bbba b3bc
00000020: 76b3 6bbc 4d30 c93d d47a 20bd 1d44 cebd
00000030: 7543 523d 01d7 1739 580c adb9 9225 16bc
00000040: a027 55bc c55c 7ebb 07a8 b0bd 4447 7f3d
00000050: def3 5b3d c46f 6e3d 8f8b 603d bc11 62bd
00000060: 9133 873c 75f7 dabc 1797 b53d 9c48 41bd
00000070: 199a 303b 22c7 b33d dbe4 04bd bbb4 ddbd
-0.06549165 0.045558814 -0.06443406 0.009392084 -0.008707853 -0.09422466 -0.0158135 -0.021939626
-0.014386049 0.09823666 -0.039179638 -0.10071585 0.051333863 0.00014480577 -0.00033006328 -0.009164231
-0.013009936 -0.003881262 -0.08625799 0.062323824 0.053699367 0.058212057 0.054820593 -0.055192694
0.016504081 -0.026729325 0.08866709 -0.047188386 0.0026947318 0.08778216 -0.032444816 -0.10825487

transformer.transformer.layers.0.norm1.weight f4 [32]
00000000: 03e1 813f 5929 7b3f c3ce 7f3f 7c9b 793f
00000010: b7e7 7f3f ccc0 813f a2e2 7c3f 0c32 7b3f
00000020: 45fa 823f 1801 783f 31f0 823f 1181 853f
00000030: 5328 793f 5e79 7a3f 10ef 7e3f 76ce 823f
00000040: cc64 7d3f 1582 7b3f 953f 843f 5bf8 7b3f
00000050: 5fe9 793f 905a 7c3f 6c1b 783f 1cee 783f
00000060: 3d3e 7a3f 9418 803f bca0 783f 9206 7a3f
00000070: 33cf 793f 8247 7b3f b0d6 7b3f 1c4a 843f
1.0146793 0.98109967 0.9992487 0.97502875 0.99962944 1.0136962 0.98783314 0.9812324
1.0232626 0.9687667 1.0229551 1.0430013 0.97327155 0.9784144 0.9958353 1.0219257
0.9898193 0.98245364 1.0331904 0.98425835 0.9762172 0.9857569 0.9691684 0.97238326
0.9775122 1.0007501 0.9712026 0.97666276 0.97581786 0.9815599 0.9837446 1.0335116

transformer.transformer.layers.0.norm1.bias f4 [32]
00000000: bc3b 30bc 0c89 713c b8ef 143c 95e7 fb3c
00000010: f2ab 653c 03a2 d5bb ea5c 643b fa5a a03c
00000020: c68b 173b f63b 643c 98eb acbc 587a 0dbd
00000030: 91cd 913c 7321 113c f59b 15bc 95d3 dabc
00000040: 86ed 083b 1cca a73c 4d8b c5bc 14fd 2e3c
00000050: 5f4f 633b 0040 f43c 2600 b83c 0f82 083d
00000060: 14c0 833c 71f2 b43c cffa 763c 901a 01ba
00000070: 745a 9f3c 7fa0 8c3c cd77 8d3c 3fd0 03bd
-0.010756429 0.014742147 0.0090903565 0.030750075 0.014018046 -0.0065195574 0.003484542 0.019574631
0.0023124083 0.013930311 -0.021108434 -0.034540504 0.017798217 0.008858073 -0.009131421 -0.026712218
0.0020893528 0.020482115 -0.024114275 0.010680456 0.003468476 0.029815674 0.022461008 0.03332716
0.0160828 0.022088261 0.015074446 -0.00049249176 0.019452311 0.017166374 0.01726904 -0.03218102

transformer.transformer.layers.0.norm2.weight f4 [32]
00000000: 731b 813f 85ed 793f 7bee 7e3f b9c6 783f
00000010: 3aa8 803f 17cf 813f c4f5 7d3f 11b4 7a3f
00000020: 0fe9 813f 1565 783f 8908 833f 7e8f 853f
00000030: 9e62 773f 0bf8 783f 4ec0 7d3f 73cc 823f
00000040: 6bca 7c3f 755a 7a3f 2ba2 843f 6d0e 7a3f
00000050: 5e6b 793f 5bce 7c3f a097 783f d5fa 783f
00000060: c097 7b3f 662f 7f3f a64f 773f fcb8 783f
00000070: 2da7 793f d2d5 7a3f 17bc 7a3f 6265 843f
1.0086502 0.9762805 0.9958264 0.97178227 1.0051339 1.0141324 0.99203134 0.9793101
1.0149249 0.9702924 1.023698 1.0434415 0.9663485 0.97253484 0.9912156 1.0218643
0.98746365 0.97794276 1.036199 0.9767826 0.97429454 0.98752373 0.9710636 0.9725774
0.9827843 0.996817 0.9660591 0.97157264 0.97520715 0.97982514 0.9794325 1.034344

transformer.transformer.layers.0.norm2.bias f4 [32]
00000000: 74c3 34bc 3d3b 923c c44a a03c ca77 ed3c
00000010: 173a 7e3c c582 afbb 427e 0e3c 86d3 103c
00000020: 41da 58bb d33c 9c3c ece3 aabc 24c2 c7bc
00000030: dfc5 853c 4fdf 2c3c 2e0e 94bb 8b28 9fbc
00000040: 75f2 083c dd97 a93c e002 f2bc 589a 4f3c
00000050: 56a2 823c db90 a53c e51f 993c f029 d73c
00000060: 08fc 873c 5571 da3c 3538 bc3c 9780 2d3b
00000070: 934d b93c ad42 983c e880 d43c 0c18 f1bc
-0.011032928 0.017850513 0.019566901 0.028987784 0.015516779 -0.005356165 0.008697094 0.008839494
-0.0033089074 0.019071972 -0.020860635 -0.024384566 0.016329704 0.010551288 -0.004518292 -0.019428512
0.0083585875 0.020702297 -0.029542387 0.012671076 0.015946548 0.020210674 0.018691966 0.026265115
0.01659967 0.026665369 0.02297602 0.002647435 0.022619998 0.018586481 0.025940374 -0.029430412

transformer.transformer.layers.1.self_attn.in_proj_weight f4 [96, 32]
00000000: f054 4cbe 2db5 503e 7d05 c83d 01e9 dabd
00000010: 5da5 c83d 3572 b9bd 0ecb 4a3e 5237 3b3d
00000020: aa8f 8f3d 408e 443e 6365 1ebe 33a5 3abe
00000030: 1e64 3dbe 81c1 25bd 44ef f5bc 6cbc 56be
00000040: 325e 91bc 043b cfbd 48d4 d33b fdd1 313e
00000050: 0004 2d3e 6ea8 3f3e 4fdd 03be c5e3 483e
00000060: 0ab9 d1bd f58d 713d 8cd4 693d 57bd 19be
00000070: 5b97 163e d262 383e 5cd7 9fbc d6ed 22be
00000080: 30bd cbbc e7cb 113e 7a71 103e 0e6f 45bc
00000090: 1f73 e8bc 5879 ccbd 5e63 01be f50f e23d
000000a0: 24e4 c239 2530 4ebe 9150 a3bc a570 4b3e
000000b0: caca 19bd 895d b6bd 01c1 ec3c acd1 533c
000000c0: 7ae4 3dbe d654 a8bd 9aa4 25be 9a66 323d
000000d0: c184 e33c 4adf 0bbe 0e61 0fbe d1f2 fb3d
000000e0: f61b 533d 733f e2bd cc84 af3d 2634 193d
000000f0: 4147 18bd 13d4 9dbd 85d3 13be 4bd8 7bbd
00000100: 155b 593d 1cb1 17be 60fd b73d d877 cbbd
00000110: b8bb 10be acf0 7dbd 3b98 ad3d 8e2c 273e
00000120: 2f0a 0d3d e28d 583e 92f7 673d e191 353e
00000130: 113d 053e f0c0 223e f0dc c9bd 1019 063e
00000140: 9584 db3d a2ec b7bc 727f 403e 0664 ba3d
00000150: ed16 3f3e e1ed b13d 5082 a1bd 7e11 133e
00000160: 78b2 6cbe f9ea 9d3c 440f 043e 6993 8a3c
00000170: 87a8 51be 31a9 993d 1ff9 323e 9248 0f3d
00000180: dee8 f5bb 3648 24be b73e 51be 40d1 3fbe
00000190: 88e6 ff3d b18b c7bc 9d0e f8bd c48a 423d
000001a0: 0f4b 1e3e e887 1f3e a534 273e 2748 23be
000001b0: 6569 bebd fd85 033e fe79 40be 7174 b83c
000001c0: f82f 253e e893 3dbe 453f 283e 8d04 87bd
000001d0: 89e0 61be 6d7a 763d 7601 13be 54d9 62be
000001e0: 009a 133e 961f 353d c48b 9bbc c7ef 4a3c
000001f0: 4139 363e 89ad 5cbe 68f5 56bd 1465 f53d
00000200: 0b0e 86bd 1d81 b6bd 74da ee3d 520a 5bbe
00000210: d008 1eba 5645 d4bd b642 ba3d 5a9d aabd
00000220: ca83 acbd 19df c83c af14 b1bd 1ed0 02be
00000230: 8078 4d3e d2c1 bfbd bc06 41be f70a 923d
00000240: c6ff 1abd d330 173e b955 063e a049 2fbd
00000250: 041c d5bd 161c 593c 4eb7 293d 74bb 2b3e
00000260: d4c5 0cbe 9fc7 de3d dd04 4b3d afa8 b03d
00000270: 0f48 093e 9b43 abbd 15eb adbd dfe6 123d
00000280: f64d 163e 063b b6bd 9346 5abd f1cb d8bd
00000290: 67a0 5b3d 62dc e93c 26bb 83bc 339b ea3d
000002a0: 43e1 293e 05a0 1cbe 6485 8bbd 4df3 97bd
000002b0: ca06 373e 9af8 c7bd 308e 453e a989 31be
000002c0: af24 00bd cbad 303e 42d2 89bd eb69 293e
000002d0: 72de 28be 9603 86bb a7d2 53be 58d1 12be
000002e0: 95a8 2b3e 4e9e 303e 328b 5c3e 4eb5 49bd
000002f0: acba 343e 4cf4 0f3e fb53 233e 1c90 b23b
00000300: 3520 d3bc e745 523d f778 523e 5638 57be
00000310: d36f db3d 025a 37bd 3a80 45be b225 d43d
00000320: 61e1 4cbd 92f8 5fbe feed 273e 2332 283e
00000330: 7f60 0c3e 100b 24bd 56eb c4bd 12a4 563e
00000340: 4bba 95bd 92dd 9bbd 20d8 a33c 91ae 0a3e
00000350: d49b 383d 792a 5ebd 0a73 363e a972 b5bd
00000360: 031a 08be 1606 d1bd 4830 53bd 3ea6 b3bd
00000370: 6d60 3abe a470 0fbd b7c7 133d a653 06be
00000380: 6ab2 20be 6b35 83bd 2e83 2dbd 89f8 483e
00000390: 29f6 2fbe 1907 0fbd 96ab b13d 5e3e 06be
000003a0: fea4 ddbd 9146 03be 8273 543c d69a 81bd
000003b0: 7f55 5c3e 398d 59be 741c d33d 0a40 81bd
000003c0: a43b e7bd 0acf 623c 4f1f bb3d bac2 43bd
000003d0: 16ae 183e a197 bdbd 85d4 293e 8ac5 11be
000003e0: ec47 983d 0e92 d43c 8355 32be eab3 663c
000003f0: 76ec 30be de15 333e 419d 65be 2ab5 cfbd
-0.19954276 0.20381613 0.09766672 -0.10688973 0.097971655 -0.090549864 0.19804022 0.045707054
0.070098236 0.19194889 -0.15468363 -0.18227081 -0.18495223 -0.040467743 -0.030021317 -0.20970315
-0.017745111 -0.10118678 0.006464515 0.1736526 0.16896057 0.18716595 -0.12877391 0.19618137
-0.102403715 0.05897327 0.057087466 -0.15013634 0.14706175 0.18006447 -0.019511871 -0.1591104
-0.024870485 0.14237939 0.14105788 -0.012050403 -0.028375207 -0.09984082 -0.12635562 0.110382
0.00037172541 -0.20135553 -0.019935878 0.19867189 -0.03754691 -0.08904559 0.028900625 0.012928408
-0.18544188 -0.08219306 -0.16176072 0.04355488 0.027773263 -0.13659397 -0.14001867 0.12302173
0.051540338 -0.11047258 0.08570251 0.03740325 -0.037177328 -0.077064656 -0.14436157 -0.06148557
0.05306538 -0.14813656 0.08983874 -0.09934968 -0.14134109 -0.0619971 0.08476301 0.1632559
0.03443354 0.21147874 0.056632586 0.1773143 0.13011576 0.15893912 -0.098565936 0.13095498
0.107186474 -0.022451703 0.18798617 0.09101109 0.18661089 0.0868795 -0.07886183 0.14362141
-0.23114955 0.019277083 0.12896448 0.016915994 -0.20474444 0.07502974 0.17477845 0.034981318
-0.0075045666 -0.16043171 -0.2043408 -0.18732166 0.12495142 -0.024358602 -0.12112162 0.04749562
0.1545832 0.15579188 0.16328676 -0.15945493 -0.09297446 0.12844081 -0.18796536 0.022516461
0.1613158 -0.18513453 0.16430385 -0.06592665 -0.2205831 0.060175348 -0.14356026 -0.22153217
0.14414215 0.044219576 -0.018987544 0.012386269 0.17795278 -0.21550573 -0.05248013 0.1198217
-0.06545647 -0.08911345 0.116627604 -0.21390656 -0.0006028535 -0.10364787 0.09094755 -0.08330794
-0.08423574 0.024520444 -0.08646523 -0.12774703 0.20065498 -0.0936314 -0.18850225 0.07130998
-0.03784158 0.14764719 0.13118638 -0.042794824 -0.10405734 0.013251325 0.04143458 0.16770726
-0.1374734 0.108779185 0.049565185 0.08625924 0.13406394 -0.08362504 -0.08492104 0.035864707
0.14678177 -0.088979766 -0.05328996 -0.10585774 0.05361977 0.02854747 -0.01608045 0.11455383
0.16589837 -0.15295418 -0.068125516 -0.07419453 0.17873684 -0.09764214 0.19292521 -0.1733767
-0.031284984 0.17253797 -0.067295566 0.16544311 -0.16491106 -0.004089783 -0.20685826 -0.14337671
0.16763528 0.17247888 0.21537474 -0.04924517 0.17649335 0.14058036 0.15950005 0.005449308
-0.025772193 0.051336195 0.20553957 -0.21017584 0.10714688 -0.044763573 -0.19287196 0.10358752
-0.050019626 -0.21872166 0.1639938 0.16425376 0.13708685 -0.040049613 -0.09615199 0.20961025
-0.07310923 -0.076106206 0.020000517 0.13543154 0.045070484 -0.054239724 0.17817321 -0.0885976
-0.13291173 -0.10206239 -0.051559716 -0.087719426 -0.18200846 -0.03501953 0.036079135 -0.13117847
-0.1569306 -0.06406673 -0.04236143 0.19626059 -0.17183746 -0.03491888 0.086753055 -0.13109729
-0.108224854 -0.12819888 0.012966992 -0.06328361 0.21516989 -0.21245278 0.103081614 -0.063110426
-0.112906724 0.013843307 0.09136831 -0.047793128 0.14910159 -0.092574365 0.16584976 -0.14235511
0.07435593 0.02594855 -0.17415433 0.014080981 -0.17277703 0.1748881 -0.22423269 -0.10141976

transformer.transformer.layers.1.self_attn.in_proj_bias f4 [96]
00000000: 8864 c03a 9576 843c 2839 2b3c b9e0 85bc
00000010: f5d8 83bc e8ba 333c cadb 2abc af2d 7dbc
00000020: 87a1 c23b 9d55 bb3c a804 d73c acf6 94bc
00000030: b6b9 913c b9e3 a03c 36ce 4a3b cbd1 c33c
00000040: 16ee a23c eea3 623a 5374 25bc 1cb6 cc3c
00000050: abab fb3b 7ca8 9abc 39be ad3c 181d e4bc
00000060: 5583 943c 7b5c 843c 248a 893c be80 25bc
00000070: 6b9f 3cbc 64cf d2bc 26e6 943c 8a79 c5bc
00000080: a5a9 09bc fc02 68bc edc6 f5ba d2f4 73ba
00000090: 5d38 41bb b96b 5dba b7a8 113c 45a6 853b
000000a0: 441e a1bb 284e 5abb 4c10 28bc c4d2 a3bb
000000b0: 46b4 1e3c a018 013c ba8f ac3b 287d a2bb
000000c0: e255 803a c846 27bb ebc7 8b3b 3e7d ffba
000000d0: 2fb9 35bc b3e3 c73b 6cfe 313c 62af e43b
000000e0: 861e 85bb 3ad0 64bb e9e0 933b bf25 e1b9
000000f0: 14d1 f5bb 64a3 8b3b 4ba9 80bb f04f 6eb9
00000100: 7ba3 e63c 830a d73c d0d2 223c 039b 8e3c
00000110: e031 64bc 355a aabb 3456 e53b 1738 bbbc
00000120: bccc 4b3c b867 9abc 0513 043c 12c3 b9bc
00000130: 1c23 043c 49da 833c 894f 49bc 6e3f 78bc
00000140: 8168 a9ba 5b01 373c 7bf4 35bc 7e56 10bc
00000150: 0d3a 863c 0e14 033d fbfa 703c bcca 87bb
00000160: 09be 2e3c 3028 12bc c243 353c 0ecc c33b
00000170: fbab a33c 45fb 553a 8423 283c b6cc 10bc
0.0014678398 0.016169826 0.010450639 -0.016342508 -0.016094664 0.010969855 -0.010428378 -0.015452786
0.0059396657 0.022867972 0.026247337 -0.018184029 0.01778875 0.019639837 0.0030945665 0.023903748
0.019888919 0.0008645643 -0.010098535 0.02498918 0.0076803765 -0.018879168 0.02120887 -0.027845904
0.01812903 0.01615738 0.016789503 -0.010101495 -0.011512618 -0.025733657 0.01817615 -0.024105806
-0.008402263 -0.014160868 -0.0018751301 -0.00093061954 -0.0029483058 -0.0008446533 0.008890322 0.0040786588
-0.004916938 -0.0033310745 -0.010257792 -0.0049994905 0.009686535 0.007879406 0.005266157 -0.0049587674
0.000979122 -0.0025524367 0.0042657754 -0.0019492281 -0.0110915145 0.006100142 0.010863882 0.006978915
-0.0040624766 -0.0034914152 0.0045128954 -0.00042943467 -0.0075017307 0.004261421 -0.0039264313 -0.00022727228
0.028154125 0.02625013 0.009937957 0.0174079 -0.013927907 -0.005198742 0.0069988016 -0.022853894
0.012438949 -0.018848285 0.008061175 -0.022676025 0.008065011 0.016095297 -0.012287029 -0.015151842
-0.0012924821 0.011169757 -0.011105652 -0.008809684 0.016385103 0.032001548 0.014708276 -0.004144041
0.010665425 -0.008920714 0.011063518 0.005975253 0.019979468 0.0008162747 0.010262374 -0.008837869
